{"keras_version": "2.0.5", "config": {"name": "model_2", "input_layers": [["input_1", 0, 0]], "layers": [{"name": "input_1", "config": {"batch_input_shape": [null, 224, 224, 3], "sparse": false, "dtype": "float32", "name": "input_1"}, "inbound_nodes": [], "class_name": "InputLayer"}, {"name": "zero_padding2d_1", "config": {"name": "zero_padding2d_1", "data_format": "channels_last", "trainable": false, "padding": [[3, 3], [3, 3]]}, "inbound_nodes": [[["input_1", 0, 0, {}]]], "class_name": "ZeroPadding2D"}, {"name": "conv1", "config": {"name": "conv1", "strides": [2, 2], "activity_regularizer": null, "kernel_initializer": {"config": {"scale": 1.0, "distribution": "uniform", "mode": "fan_avg", "seed": null}, "class_name": "VarianceScaling"}, "kernel_constraint": null, "bias_constraint": null, "data_format": "channels_last", "trainable": false, "bias_regularizer": null, "dilation_rate": [1, 1], "use_bias": true, "activation": "linear", "bias_initializer": {"config": {}, "class_name": "Zeros"}, "kernel_size": [7, 7], "kernel_regularizer": null, "filters": 64, "padding": "valid"}, "inbound_nodes": [[["zero_padding2d_1", 0, 0, {}]]], "class_name": "Conv2D"}, {"name": "bn_conv1", "config": {"momentum": 0.99, "name": "bn_conv1", "moving_variance_initializer": {"config": {}, "class_name": "Ones"}, "beta_initializer": {"config": {}, "class_name": "Zeros"}, "axis": 3, "center": true, "beta_regularizer": null, "gamma_constraint": null, "trainable": false, "moving_mean_initializer": {"config": {}, "class_name": "Zeros"}, "scale": true, "gamma_initializer": {"config": {}, "class_name": "Ones"}, "beta_constraint": null, "epsilon": 0.001, "gamma_regularizer": null}, "inbound_nodes": [[["conv1", 0, 0, {}]]], "class_name": "BatchNormalization"}, {"name": "activation_1", "config": {"name": "activation_1", "activation": "relu", "trainable": false}, "inbound_nodes": [[["bn_conv1", 0, 0, {}]]], "class_name": "Activation"}, {"name": "max_pooling2d_1", "config": {"name": "max_pooling2d_1", "strides": [2, 2], "pool_size": [3, 3], "data_format": "channels_last", "trainable": false, "padding": "valid"}, "inbound_nodes": [[["activation_1", 0, 0, {}]]], "class_name": "MaxPooling2D"}, {"name": "res2a_branch2a", "config": {"name": "res2a_branch2a", "strides": [1, 1], "activity_regularizer": null, "kernel_initializer": {"config": {"scale": 1.0, "distribution": "uniform", "mode": "fan_avg", "seed": null}, "class_name": "VarianceScaling"}, "kernel_constraint": null, "bias_constraint": null, "data_format": "channels_last", "trainable": false, "bias_regularizer": null, "dilation_rate": [1, 1], "use_bias": true, "activation": "linear", "bias_initializer": {"config": {}, "class_name": "Zeros"}, "kernel_size": [1, 1], "kernel_regularizer": null, "filters": 64, "padding": "valid"}, "inbound_nodes": [[["max_pooling2d_1", 0, 0, {}]]], "class_name": "Conv2D"}, {"name": "bn2a_branch2a", "config": {"momentum": 0.99, "name": "bn2a_branch2a", "moving_variance_initializer": {"config": {}, "class_name": "Ones"}, "beta_initializer": {"config": {}, "class_name": "Zeros"}, "axis": 3, "center": true, "beta_regularizer": null, "gamma_constraint": null, "trainable": false, "moving_mean_initializer": {"config": {}, "class_name": "Zeros"}, "scale": true, "gamma_initializer": {"config": {}, "class_name": "Ones"}, "beta_constraint": null, "epsilon": 0.001, "gamma_regularizer": null}, "inbound_nodes": [[["res2a_branch2a", 0, 0, {}]]], "class_name": "BatchNormalization"}, {"name": "activation_2", "config": {"name": "activation_2", "activation": "relu", "trainable": false}, "inbound_nodes": [[["bn2a_branch2a", 0, 0, {}]]], "class_name": "Activation"}, {"name": "res2a_branch2b", "config": {"name": "res2a_branch2b", "strides": [1, 1], "activity_regularizer": null, "kernel_initializer": {"config": {"scale": 1.0, "distribution": "uniform", "mode": "fan_avg", "seed": null}, "class_name": "VarianceScaling"}, "kernel_constraint": null, "bias_constraint": null, "data_format": "channels_last", "trainable": false, "bias_regularizer": null, "dilation_rate": [1, 1], "use_bias": true, "activation": "linear", "bias_initializer": {"config": {}, "class_name": "Zeros"}, "kernel_size": [3, 3], "kernel_regularizer": null, "filters": 64, "padding": "same"}, "inbound_nodes": [[["activation_2", 0, 0, {}]]], "class_name": "Conv2D"}, {"name": "bn2a_branch2b", "config": {"momentum": 0.99, "name": "bn2a_branch2b", "moving_variance_initializer": {"config": {}, "class_name": "Ones"}, "beta_initializer": {"config": {}, "class_name": "Zeros"}, "axis": 3, "center": true, "beta_regularizer": null, "gamma_constraint": null, "trainable": false, "moving_mean_initializer": {"config": {}, "class_name": "Zeros"}, "scale": true, "gamma_initializer": {"config": {}, "class_name": "Ones"}, "beta_constraint": null, "epsilon": 0.001, "gamma_regularizer": null}, "inbound_nodes": [[["res2a_branch2b", 0, 0, {}]]], "class_name": "BatchNormalization"}, {"name": "activation_3", "config": {"name": "activation_3", "activation": "relu", "trainable": false}, "inbound_nodes": [[["bn2a_branch2b", 0, 0, {}]]], "class_name": "Activation"}, {"name": "res2a_branch2c", "config": {"name": "res2a_branch2c", "strides": [1, 1], "activity_regularizer": null, "kernel_initializer": {"config": {"scale": 1.0, "distribution": "uniform", "mode": "fan_avg", "seed": null}, "class_name": "VarianceScaling"}, "kernel_constraint": null, "bias_constraint": null, "data_format": "channels_last", "trainable": false, "bias_regularizer": null, "dilation_rate": [1, 1], "use_bias": true, "activation": "linear", "bias_initializer": {"config": {}, "class_name": "Zeros"}, "kernel_size": [1, 1], "kernel_regularizer": null, "filters": 256, "padding": "valid"}, "inbound_nodes": [[["activation_3", 0, 0, {}]]], "class_name": "Conv2D"}, {"name": "res2a_branch1", "config": {"name": "res2a_branch1", "strides": [1, 1], "activity_regularizer": null, "kernel_initializer": {"config": {"scale": 1.0, "distribution": "uniform", "mode": "fan_avg", "seed": null}, "class_name": "VarianceScaling"}, "kernel_constraint": null, "bias_constraint": null, "data_format": "channels_last", "trainable": false, "bias_regularizer": null, "dilation_rate": [1, 1], "use_bias": true, "activation": "linear", "bias_initializer": {"config": {}, "class_name": "Zeros"}, "kernel_size": [1, 1], "kernel_regularizer": null, "filters": 256, "padding": "valid"}, "inbound_nodes": [[["max_pooling2d_1", 0, 0, {}]]], "class_name": "Conv2D"}, {"name": "bn2a_branch2c", "config": {"momentum": 0.99, "name": "bn2a_branch2c", "moving_variance_initializer": {"config": {}, "class_name": "Ones"}, "beta_initializer": {"config": {}, "class_name": "Zeros"}, "axis": 3, "center": true, "beta_regularizer": null, "gamma_constraint": null, "trainable": false, "moving_mean_initializer": {"config": {}, "class_name": "Zeros"}, "scale": true, "gamma_initializer": {"config": {}, "class_name": "Ones"}, "beta_constraint": null, "epsilon": 0.001, "gamma_regularizer": null}, "inbound_nodes": [[["res2a_branch2c", 0, 0, {}]]], "class_name": "BatchNormalization"}, {"name": "bn2a_branch1", "config": {"momentum": 0.99, "name": "bn2a_branch1", "moving_variance_initializer": {"config": {}, "class_name": "Ones"}, "beta_initializer": {"config": {}, "class_name": "Zeros"}, "axis": 3, "center": true, "beta_regularizer": null, "gamma_constraint": null, "trainable": false, "moving_mean_initializer": {"config": {}, "class_name": "Zeros"}, "scale": true, "gamma_initializer": {"config": {}, "class_name": "Ones"}, "beta_constraint": null, "epsilon": 0.001, "gamma_regularizer": null}, "inbound_nodes": [[["res2a_branch1", 0, 0, {}]]], "class_name": "BatchNormalization"}, {"name": "add_1", "config": {"name": "add_1", "trainable": false}, "inbound_nodes": [[["bn2a_branch2c", 0, 0, {}], ["bn2a_branch1", 0, 0, {}]]], "class_name": "Add"}, {"name": "activation_4", "config": {"name": "activation_4", "activation": "relu", "trainable": false}, "inbound_nodes": [[["add_1", 0, 0, {}]]], "class_name": "Activation"}, {"name": "res2b_branch2a", "config": {"name": "res2b_branch2a", "strides": [1, 1], "activity_regularizer": null, "kernel_initializer": {"config": {"scale": 1.0, "distribution": "uniform", "mode": "fan_avg", "seed": null}, "class_name": "VarianceScaling"}, "kernel_constraint": null, "bias_constraint": null, "data_format": "channels_last", "trainable": false, "bias_regularizer": null, "dilation_rate": [1, 1], "use_bias": true, "activation": "linear", "bias_initializer": {"config": {}, "class_name": "Zeros"}, "kernel_size": [1, 1], "kernel_regularizer": null, "filters": 64, "padding": "valid"}, "inbound_nodes": [[["activation_4", 0, 0, {}]]], "class_name": "Conv2D"}, {"name": "bn2b_branch2a", "config": {"momentum": 0.99, "name": "bn2b_branch2a", "moving_variance_initializer": {"config": {}, "class_name": "Ones"}, "beta_initializer": {"config": {}, "class_name": "Zeros"}, "axis": 3, "center": true, "beta_regularizer": null, "gamma_constraint": null, "trainable": false, "moving_mean_initializer": {"config": {}, "class_name": "Zeros"}, "scale": true, "gamma_initializer": {"config": {}, "class_name": "Ones"}, "beta_constraint": null, "epsilon": 0.001, "gamma_regularizer": null}, "inbound_nodes": [[["res2b_branch2a", 0, 0, {}]]], "class_name": "BatchNormalization"}, {"name": "activation_5", "config": {"name": "activation_5", "activation": "relu", "trainable": false}, "inbound_nodes": [[["bn2b_branch2a", 0, 0, {}]]], "class_name": "Activation"}, {"name": "res2b_branch2b", "config": {"name": "res2b_branch2b", "strides": [1, 1], "activity_regularizer": null, "kernel_initializer": {"config": {"scale": 1.0, "distribution": "uniform", "mode": "fan_avg", "seed": null}, "class_name": "VarianceScaling"}, "kernel_constraint": null, "bias_constraint": null, "data_format": "channels_last", "trainable": false, "bias_regularizer": null, "dilation_rate": [1, 1], "use_bias": true, "activation": "linear", "bias_initializer": {"config": {}, "class_name": "Zeros"}, "kernel_size": [3, 3], "kernel_regularizer": null, "filters": 64, "padding": "same"}, "inbound_nodes": [[["activation_5", 0, 0, {}]]], "class_name": "Conv2D"}, {"name": "bn2b_branch2b", "config": {"momentum": 0.99, "name": "bn2b_branch2b", "moving_variance_initializer": {"config": {}, "class_name": "Ones"}, "beta_initializer": {"config": {}, "class_name": "Zeros"}, "axis": 3, "center": true, "beta_regularizer": null, "gamma_constraint": null, "trainable": false, "moving_mean_initializer": {"config": {}, "class_name": "Zeros"}, "scale": true, "gamma_initializer": {"config": {}, "class_name": "Ones"}, "beta_constraint": null, "epsilon": 0.001, "gamma_regularizer": null}, "inbound_nodes": [[["res2b_branch2b", 0, 0, {}]]], "class_name": "BatchNormalization"}, {"name": "activation_6", "config": {"name": "activation_6", "activation": "relu", "trainable": false}, "inbound_nodes": [[["bn2b_branch2b", 0, 0, {}]]], "class_name": "Activation"}, {"name": "res2b_branch2c", "config": {"name": "res2b_branch2c", "strides": [1, 1], "activity_regularizer": null, "kernel_initializer": {"config": {"scale": 1.0, "distribution": "uniform", "mode": "fan_avg", "seed": null}, "class_name": "VarianceScaling"}, "kernel_constraint": null, "bias_constraint": null, "data_format": "channels_last", "trainable": false, "bias_regularizer": null, "dilation_rate": [1, 1], "use_bias": true, "activation": "linear", "bias_initializer": {"config": {}, "class_name": "Zeros"}, "kernel_size": [1, 1], "kernel_regularizer": null, "filters": 256, "padding": "valid"}, "inbound_nodes": [[["activation_6", 0, 0, {}]]], "class_name": "Conv2D"}, {"name": "bn2b_branch2c", "config": {"momentum": 0.99, "name": "bn2b_branch2c", "moving_variance_initializer": {"config": {}, "class_name": "Ones"}, "beta_initializer": {"config": {}, "class_name": "Zeros"}, "axis": 3, "center": true, "beta_regularizer": null, "gamma_constraint": null, "trainable": false, "moving_mean_initializer": {"config": {}, "class_name": "Zeros"}, "scale": true, "gamma_initializer": {"config": {}, "class_name": "Ones"}, "beta_constraint": null, "epsilon": 0.001, "gamma_regularizer": null}, "inbound_nodes": [[["res2b_branch2c", 0, 0, {}]]], "class_name": "BatchNormalization"}, {"name": "add_2", "config": {"name": "add_2", "trainable": false}, "inbound_nodes": [[["bn2b_branch2c", 0, 0, {}], ["activation_4", 0, 0, {}]]], "class_name": "Add"}, {"name": "activation_7", "config": {"name": "activation_7", "activation": "relu", "trainable": false}, "inbound_nodes": [[["add_2", 0, 0, {}]]], "class_name": "Activation"}, {"name": "res2c_branch2a", "config": {"name": "res2c_branch2a", "strides": [1, 1], "activity_regularizer": null, "kernel_initializer": {"config": {"scale": 1.0, "distribution": "uniform", "mode": "fan_avg", "seed": null}, "class_name": "VarianceScaling"}, "kernel_constraint": null, "bias_constraint": null, "data_format": "channels_last", "trainable": false, "bias_regularizer": null, "dilation_rate": [1, 1], "use_bias": true, "activation": "linear", "bias_initializer": {"config": {}, "class_name": "Zeros"}, "kernel_size": [1, 1], "kernel_regularizer": null, "filters": 64, "padding": "valid"}, "inbound_nodes": [[["activation_7", 0, 0, {}]]], "class_name": "Conv2D"}, {"name": "bn2c_branch2a", "config": {"momentum": 0.99, "name": "bn2c_branch2a", "moving_variance_initializer": {"config": {}, "class_name": "Ones"}, "beta_initializer": {"config": {}, "class_name": "Zeros"}, "axis": 3, "center": true, "beta_regularizer": null, "gamma_constraint": null, "trainable": false, "moving_mean_initializer": {"config": {}, "class_name": "Zeros"}, "scale": true, "gamma_initializer": {"config": {}, "class_name": "Ones"}, "beta_constraint": null, "epsilon": 0.001, "gamma_regularizer": null}, "inbound_nodes": [[["res2c_branch2a", 0, 0, {}]]], "class_name": "BatchNormalization"}, {"name": "activation_8", "config": {"name": "activation_8", "activation": "relu", "trainable": false}, "inbound_nodes": [[["bn2c_branch2a", 0, 0, {}]]], "class_name": "Activation"}, {"name": "res2c_branch2b", "config": {"name": "res2c_branch2b", "strides": [1, 1], "activity_regularizer": null, "kernel_initializer": {"config": {"scale": 1.0, "distribution": "uniform", "mode": "fan_avg", "seed": null}, "class_name": "VarianceScaling"}, "kernel_constraint": null, "bias_constraint": null, "data_format": "channels_last", "trainable": false, "bias_regularizer": null, "dilation_rate": [1, 1], "use_bias": true, "activation": "linear", "bias_initializer": {"config": {}, "class_name": "Zeros"}, "kernel_size": [3, 3], "kernel_regularizer": null, "filters": 64, "padding": "same"}, "inbound_nodes": [[["activation_8", 0, 0, {}]]], "class_name": "Conv2D"}, {"name": "bn2c_branch2b", "config": {"momentum": 0.99, "name": "bn2c_branch2b", "moving_variance_initializer": {"config": {}, "class_name": "Ones"}, "beta_initializer": {"config": {}, "class_name": "Zeros"}, "axis": 3, "center": true, "beta_regularizer": null, "gamma_constraint": null, "trainable": false, "moving_mean_initializer": {"config": {}, "class_name": "Zeros"}, "scale": true, "gamma_initializer": {"config": {}, "class_name": "Ones"}, "beta_constraint": null, "epsilon": 0.001, "gamma_regularizer": null}, "inbound_nodes": [[["res2c_branch2b", 0, 0, {}]]], "class_name": "BatchNormalization"}, {"name": "activation_9", "config": {"name": "activation_9", "activation": "relu", "trainable": false}, "inbound_nodes": [[["bn2c_branch2b", 0, 0, {}]]], "class_name": "Activation"}, {"name": "res2c_branch2c", "config": {"name": "res2c_branch2c", "strides": [1, 1], "activity_regularizer": null, "kernel_initializer": {"config": {"scale": 1.0, "distribution": "uniform", "mode": "fan_avg", "seed": null}, "class_name": "VarianceScaling"}, "kernel_constraint": null, "bias_constraint": null, "data_format": "channels_last", "trainable": false, "bias_regularizer": null, "dilation_rate": [1, 1], "use_bias": true, "activation": "linear", "bias_initializer": {"config": {}, "class_name": "Zeros"}, "kernel_size": [1, 1], "kernel_regularizer": null, "filters": 256, "padding": "valid"}, "inbound_nodes": [[["activation_9", 0, 0, {}]]], "class_name": "Conv2D"}, {"name": "bn2c_branch2c", "config": {"momentum": 0.99, "name": "bn2c_branch2c", "moving_variance_initializer": {"config": {}, "class_name": "Ones"}, "beta_initializer": {"config": {}, "class_name": "Zeros"}, "axis": 3, "center": true, "beta_regularizer": null, "gamma_constraint": null, "trainable": false, "moving_mean_initializer": {"config": {}, "class_name": "Zeros"}, "scale": true, "gamma_initializer": {"config": {}, "class_name": "Ones"}, "beta_constraint": null, "epsilon": 0.001, "gamma_regularizer": null}, "inbound_nodes": [[["res2c_branch2c", 0, 0, {}]]], "class_name": "BatchNormalization"}, {"name": "add_3", "config": {"name": "add_3", "trainable": false}, "inbound_nodes": [[["bn2c_branch2c", 0, 0, {}], ["activation_7", 0, 0, {}]]], "class_name": "Add"}, {"name": "activation_10", "config": {"name": "activation_10", "activation": "relu", "trainable": false}, "inbound_nodes": [[["add_3", 0, 0, {}]]], "class_name": "Activation"}, {"name": "res3a_branch2a", "config": {"name": "res3a_branch2a", "strides": [2, 2], "activity_regularizer": null, "kernel_initializer": {"config": {"scale": 1.0, "distribution": "uniform", "mode": "fan_avg", "seed": null}, "class_name": "VarianceScaling"}, "kernel_constraint": null, "bias_constraint": null, "data_format": "channels_last", "trainable": false, "bias_regularizer": null, "dilation_rate": [1, 1], "use_bias": true, "activation": "linear", "bias_initializer": {"config": {}, "class_name": "Zeros"}, "kernel_size": [1, 1], "kernel_regularizer": null, "filters": 128, "padding": "valid"}, "inbound_nodes": [[["activation_10", 0, 0, {}]]], "class_name": "Conv2D"}, {"name": "bn3a_branch2a", "config": {"momentum": 0.99, "name": "bn3a_branch2a", "moving_variance_initializer": {"config": {}, "class_name": "Ones"}, "beta_initializer": {"config": {}, "class_name": "Zeros"}, "axis": 3, "center": true, "beta_regularizer": null, "gamma_constraint": null, "trainable": false, "moving_mean_initializer": {"config": {}, "class_name": "Zeros"}, "scale": true, "gamma_initializer": {"config": {}, "class_name": "Ones"}, "beta_constraint": null, "epsilon": 0.001, "gamma_regularizer": null}, "inbound_nodes": [[["res3a_branch2a", 0, 0, {}]]], "class_name": "BatchNormalization"}, {"name": "activation_11", "config": {"name": "activation_11", "activation": "relu", "trainable": false}, "inbound_nodes": [[["bn3a_branch2a", 0, 0, {}]]], "class_name": "Activation"}, {"name": "res3a_branch2b", "config": {"name": "res3a_branch2b", "strides": [1, 1], "activity_regularizer": null, "kernel_initializer": {"config": {"scale": 1.0, "distribution": "uniform", "mode": "fan_avg", "seed": null}, "class_name": "VarianceScaling"}, "kernel_constraint": null, "bias_constraint": null, "data_format": "channels_last", "trainable": false, "bias_regularizer": null, "dilation_rate": [1, 1], "use_bias": true, "activation": "linear", "bias_initializer": {"config": {}, "class_name": "Zeros"}, "kernel_size": [3, 3], "kernel_regularizer": null, "filters": 128, "padding": "same"}, "inbound_nodes": [[["activation_11", 0, 0, {}]]], "class_name": "Conv2D"}, {"name": "bn3a_branch2b", "config": {"momentum": 0.99, "name": "bn3a_branch2b", "moving_variance_initializer": {"config": {}, "class_name": "Ones"}, "beta_initializer": {"config": {}, "class_name": "Zeros"}, "axis": 3, "center": true, "beta_regularizer": null, "gamma_constraint": null, "trainable": false, "moving_mean_initializer": {"config": {}, "class_name": "Zeros"}, "scale": true, "gamma_initializer": {"config": {}, "class_name": "Ones"}, "beta_constraint": null, "epsilon": 0.001, "gamma_regularizer": null}, "inbound_nodes": [[["res3a_branch2b", 0, 0, {}]]], "class_name": "BatchNormalization"}, {"name": "activation_12", "config": {"name": "activation_12", "activation": "relu", "trainable": false}, "inbound_nodes": [[["bn3a_branch2b", 0, 0, {}]]], "class_name": "Activation"}, {"name": "res3a_branch2c", "config": {"name": "res3a_branch2c", "strides": [1, 1], "activity_regularizer": null, "kernel_initializer": {"config": {"scale": 1.0, "distribution": "uniform", "mode": "fan_avg", "seed": null}, "class_name": "VarianceScaling"}, "kernel_constraint": null, "bias_constraint": null, "data_format": "channels_last", "trainable": false, "bias_regularizer": null, "dilation_rate": [1, 1], "use_bias": true, "activation": "linear", "bias_initializer": {"config": {}, "class_name": "Zeros"}, "kernel_size": [1, 1], "kernel_regularizer": null, "filters": 512, "padding": "valid"}, "inbound_nodes": [[["activation_12", 0, 0, {}]]], "class_name": "Conv2D"}, {"name": "res3a_branch1", "config": {"name": "res3a_branch1", "strides": [2, 2], "activity_regularizer": null, "kernel_initializer": {"config": {"scale": 1.0, "distribution": "uniform", "mode": "fan_avg", "seed": null}, "class_name": "VarianceScaling"}, "kernel_constraint": null, "bias_constraint": null, "data_format": "channels_last", "trainable": false, "bias_regularizer": null, "dilation_rate": [1, 1], "use_bias": true, "activation": "linear", "bias_initializer": {"config": {}, "class_name": "Zeros"}, "kernel_size": [1, 1], "kernel_regularizer": null, "filters": 512, "padding": "valid"}, "inbound_nodes": [[["activation_10", 0, 0, {}]]], "class_name": "Conv2D"}, {"name": "bn3a_branch2c", "config": {"momentum": 0.99, "name": "bn3a_branch2c", "moving_variance_initializer": {"config": {}, "class_name": "Ones"}, "beta_initializer": {"config": {}, "class_name": "Zeros"}, "axis": 3, "center": true, "beta_regularizer": null, "gamma_constraint": null, "trainable": false, "moving_mean_initializer": {"config": {}, "class_name": "Zeros"}, "scale": true, "gamma_initializer": {"config": {}, "class_name": "Ones"}, "beta_constraint": null, "epsilon": 0.001, "gamma_regularizer": null}, "inbound_nodes": [[["res3a_branch2c", 0, 0, {}]]], "class_name": "BatchNormalization"}, {"name": "bn3a_branch1", "config": {"momentum": 0.99, "name": "bn3a_branch1", "moving_variance_initializer": {"config": {}, "class_name": "Ones"}, "beta_initializer": {"config": {}, "class_name": "Zeros"}, "axis": 3, "center": true, "beta_regularizer": null, "gamma_constraint": null, "trainable": false, "moving_mean_initializer": {"config": {}, "class_name": "Zeros"}, "scale": true, "gamma_initializer": {"config": {}, "class_name": "Ones"}, "beta_constraint": null, "epsilon": 0.001, "gamma_regularizer": null}, "inbound_nodes": [[["res3a_branch1", 0, 0, {}]]], "class_name": "BatchNormalization"}, {"name": "add_4", "config": {"name": "add_4", "trainable": false}, "inbound_nodes": [[["bn3a_branch2c", 0, 0, {}], ["bn3a_branch1", 0, 0, {}]]], "class_name": "Add"}, {"name": "activation_13", "config": {"name": "activation_13", "activation": "relu", "trainable": false}, "inbound_nodes": [[["add_4", 0, 0, {}]]], "class_name": "Activation"}, {"name": "res3b_branch2a", "config": {"name": "res3b_branch2a", "strides": [1, 1], "activity_regularizer": null, "kernel_initializer": {"config": {"scale": 1.0, "distribution": "uniform", "mode": "fan_avg", "seed": null}, "class_name": "VarianceScaling"}, "kernel_constraint": null, "bias_constraint": null, "data_format": "channels_last", "trainable": false, "bias_regularizer": null, "dilation_rate": [1, 1], "use_bias": true, "activation": "linear", "bias_initializer": {"config": {}, "class_name": "Zeros"}, "kernel_size": [1, 1], "kernel_regularizer": null, "filters": 128, "padding": "valid"}, "inbound_nodes": [[["activation_13", 0, 0, {}]]], "class_name": "Conv2D"}, {"name": "bn3b_branch2a", "config": {"momentum": 0.99, "name": "bn3b_branch2a", "moving_variance_initializer": {"config": {}, "class_name": "Ones"}, "beta_initializer": {"config": {}, "class_name": "Zeros"}, "axis": 3, "center": true, "beta_regularizer": null, "gamma_constraint": null, "trainable": false, "moving_mean_initializer": {"config": {}, "class_name": "Zeros"}, "scale": true, "gamma_initializer": {"config": {}, "class_name": "Ones"}, "beta_constraint": null, "epsilon": 0.001, "gamma_regularizer": null}, "inbound_nodes": [[["res3b_branch2a", 0, 0, {}]]], "class_name": "BatchNormalization"}, {"name": "activation_14", "config": {"name": "activation_14", "activation": "relu", "trainable": false}, "inbound_nodes": [[["bn3b_branch2a", 0, 0, {}]]], "class_name": "Activation"}, {"name": "res3b_branch2b", "config": {"name": "res3b_branch2b", "strides": [1, 1], "activity_regularizer": null, "kernel_initializer": {"config": {"scale": 1.0, "distribution": "uniform", "mode": "fan_avg", "seed": null}, "class_name": "VarianceScaling"}, "kernel_constraint": null, "bias_constraint": null, "data_format": "channels_last", "trainable": false, "bias_regularizer": null, "dilation_rate": [1, 1], "use_bias": true, "activation": "linear", "bias_initializer": {"config": {}, "class_name": "Zeros"}, "kernel_size": [3, 3], "kernel_regularizer": null, "filters": 128, "padding": "same"}, "inbound_nodes": [[["activation_14", 0, 0, {}]]], "class_name": "Conv2D"}, {"name": "bn3b_branch2b", "config": {"momentum": 0.99, "name": "bn3b_branch2b", "moving_variance_initializer": {"config": {}, "class_name": "Ones"}, "beta_initializer": {"config": {}, "class_name": "Zeros"}, "axis": 3, "center": true, "beta_regularizer": null, "gamma_constraint": null, "trainable": false, "moving_mean_initializer": {"config": {}, "class_name": "Zeros"}, "scale": true, "gamma_initializer": {"config": {}, "class_name": "Ones"}, "beta_constraint": null, "epsilon": 0.001, "gamma_regularizer": null}, "inbound_nodes": [[["res3b_branch2b", 0, 0, {}]]], "class_name": "BatchNormalization"}, {"name": "activation_15", "config": {"name": "activation_15", "activation": "relu", "trainable": false}, "inbound_nodes": [[["bn3b_branch2b", 0, 0, {}]]], "class_name": "Activation"}, {"name": "res3b_branch2c", "config": {"name": "res3b_branch2c", "strides": [1, 1], "activity_regularizer": null, "kernel_initializer": {"config": {"scale": 1.0, "distribution": "uniform", "mode": "fan_avg", "seed": null}, "class_name": "VarianceScaling"}, "kernel_constraint": null, "bias_constraint": null, "data_format": "channels_last", "trainable": false, "bias_regularizer": null, "dilation_rate": [1, 1], "use_bias": true, "activation": "linear", "bias_initializer": {"config": {}, "class_name": "Zeros"}, "kernel_size": [1, 1], "kernel_regularizer": null, "filters": 512, "padding": "valid"}, "inbound_nodes": [[["activation_15", 0, 0, {}]]], "class_name": "Conv2D"}, {"name": "bn3b_branch2c", "config": {"momentum": 0.99, "name": "bn3b_branch2c", "moving_variance_initializer": {"config": {}, "class_name": "Ones"}, "beta_initializer": {"config": {}, "class_name": "Zeros"}, "axis": 3, "center": true, "beta_regularizer": null, "gamma_constraint": null, "trainable": false, "moving_mean_initializer": {"config": {}, "class_name": "Zeros"}, "scale": true, "gamma_initializer": {"config": {}, "class_name": "Ones"}, "beta_constraint": null, "epsilon": 0.001, "gamma_regularizer": null}, "inbound_nodes": [[["res3b_branch2c", 0, 0, {}]]], "class_name": "BatchNormalization"}, {"name": "add_5", "config": {"name": "add_5", "trainable": false}, "inbound_nodes": [[["bn3b_branch2c", 0, 0, {}], ["activation_13", 0, 0, {}]]], "class_name": "Add"}, {"name": "activation_16", "config": {"name": "activation_16", "activation": "relu", "trainable": false}, "inbound_nodes": [[["add_5", 0, 0, {}]]], "class_name": "Activation"}, {"name": "res3c_branch2a", "config": {"name": "res3c_branch2a", "strides": [1, 1], "activity_regularizer": null, "kernel_initializer": {"config": {"scale": 1.0, "distribution": "uniform", "mode": "fan_avg", "seed": null}, "class_name": "VarianceScaling"}, "kernel_constraint": null, "bias_constraint": null, "data_format": "channels_last", "trainable": false, "bias_regularizer": null, "dilation_rate": [1, 1], "use_bias": true, "activation": "linear", "bias_initializer": {"config": {}, "class_name": "Zeros"}, "kernel_size": [1, 1], "kernel_regularizer": null, "filters": 128, "padding": "valid"}, "inbound_nodes": [[["activation_16", 0, 0, {}]]], "class_name": "Conv2D"}, {"name": "bn3c_branch2a", "config": {"momentum": 0.99, "name": "bn3c_branch2a", "moving_variance_initializer": {"config": {}, "class_name": "Ones"}, "beta_initializer": {"config": {}, "class_name": "Zeros"}, "axis": 3, "center": true, "beta_regularizer": null, "gamma_constraint": null, "trainable": false, "moving_mean_initializer": {"config": {}, "class_name": "Zeros"}, "scale": true, "gamma_initializer": {"config": {}, "class_name": "Ones"}, "beta_constraint": null, "epsilon": 0.001, "gamma_regularizer": null}, "inbound_nodes": [[["res3c_branch2a", 0, 0, {}]]], "class_name": "BatchNormalization"}, {"name": "activation_17", "config": {"name": "activation_17", "activation": "relu", "trainable": false}, "inbound_nodes": [[["bn3c_branch2a", 0, 0, {}]]], "class_name": "Activation"}, {"name": "res3c_branch2b", "config": {"name": "res3c_branch2b", "strides": [1, 1], "activity_regularizer": null, "kernel_initializer": {"config": {"scale": 1.0, "distribution": "uniform", "mode": "fan_avg", "seed": null}, "class_name": "VarianceScaling"}, "kernel_constraint": null, "bias_constraint": null, "data_format": "channels_last", "trainable": false, "bias_regularizer": null, "dilation_rate": [1, 1], "use_bias": true, "activation": "linear", "bias_initializer": {"config": {}, "class_name": "Zeros"}, "kernel_size": [3, 3], "kernel_regularizer": null, "filters": 128, "padding": "same"}, "inbound_nodes": [[["activation_17", 0, 0, {}]]], "class_name": "Conv2D"}, {"name": "bn3c_branch2b", "config": {"momentum": 0.99, "name": "bn3c_branch2b", "moving_variance_initializer": {"config": {}, "class_name": "Ones"}, "beta_initializer": {"config": {}, "class_name": "Zeros"}, "axis": 3, "center": true, "beta_regularizer": null, "gamma_constraint": null, "trainable": false, "moving_mean_initializer": {"config": {}, "class_name": "Zeros"}, "scale": true, "gamma_initializer": {"config": {}, "class_name": "Ones"}, "beta_constraint": null, "epsilon": 0.001, "gamma_regularizer": null}, "inbound_nodes": [[["res3c_branch2b", 0, 0, {}]]], "class_name": "BatchNormalization"}, {"name": "activation_18", "config": {"name": "activation_18", "activation": "relu", "trainable": false}, "inbound_nodes": [[["bn3c_branch2b", 0, 0, {}]]], "class_name": "Activation"}, {"name": "res3c_branch2c", "config": {"name": "res3c_branch2c", "strides": [1, 1], "activity_regularizer": null, "kernel_initializer": {"config": {"scale": 1.0, "distribution": "uniform", "mode": "fan_avg", "seed": null}, "class_name": "VarianceScaling"}, "kernel_constraint": null, "bias_constraint": null, "data_format": "channels_last", "trainable": false, "bias_regularizer": null, "dilation_rate": [1, 1], "use_bias": true, "activation": "linear", "bias_initializer": {"config": {}, "class_name": "Zeros"}, "kernel_size": [1, 1], "kernel_regularizer": null, "filters": 512, "padding": "valid"}, "inbound_nodes": [[["activation_18", 0, 0, {}]]], "class_name": "Conv2D"}, {"name": "bn3c_branch2c", "config": {"momentum": 0.99, "name": "bn3c_branch2c", "moving_variance_initializer": {"config": {}, "class_name": "Ones"}, "beta_initializer": {"config": {}, "class_name": "Zeros"}, "axis": 3, "center": true, "beta_regularizer": null, "gamma_constraint": null, "trainable": false, "moving_mean_initializer": {"config": {}, "class_name": "Zeros"}, "scale": true, "gamma_initializer": {"config": {}, "class_name": "Ones"}, "beta_constraint": null, "epsilon": 0.001, "gamma_regularizer": null}, "inbound_nodes": [[["res3c_branch2c", 0, 0, {}]]], "class_name": "BatchNormalization"}, {"name": "add_6", "config": {"name": "add_6", "trainable": false}, "inbound_nodes": [[["bn3c_branch2c", 0, 0, {}], ["activation_16", 0, 0, {}]]], "class_name": "Add"}, {"name": "activation_19", "config": {"name": "activation_19", "activation": "relu", "trainable": false}, "inbound_nodes": [[["add_6", 0, 0, {}]]], "class_name": "Activation"}, {"name": "res3d_branch2a", "config": {"name": "res3d_branch2a", "strides": [1, 1], "activity_regularizer": null, "kernel_initializer": {"config": {"scale": 1.0, "distribution": "uniform", "mode": "fan_avg", "seed": null}, "class_name": "VarianceScaling"}, "kernel_constraint": null, "bias_constraint": null, "data_format": "channels_last", "trainable": false, "bias_regularizer": null, "dilation_rate": [1, 1], "use_bias": true, "activation": "linear", "bias_initializer": {"config": {}, "class_name": "Zeros"}, "kernel_size": [1, 1], "kernel_regularizer": null, "filters": 128, "padding": "valid"}, "inbound_nodes": [[["activation_19", 0, 0, {}]]], "class_name": "Conv2D"}, {"name": "bn3d_branch2a", "config": {"momentum": 0.99, "name": "bn3d_branch2a", "moving_variance_initializer": {"config": {}, "class_name": "Ones"}, "beta_initializer": {"config": {}, "class_name": "Zeros"}, "axis": 3, "center": true, "beta_regularizer": null, "gamma_constraint": null, "trainable": false, "moving_mean_initializer": {"config": {}, "class_name": "Zeros"}, "scale": true, "gamma_initializer": {"config": {}, "class_name": "Ones"}, "beta_constraint": null, "epsilon": 0.001, "gamma_regularizer": null}, "inbound_nodes": [[["res3d_branch2a", 0, 0, {}]]], "class_name": "BatchNormalization"}, {"name": "activation_20", "config": {"name": "activation_20", "activation": "relu", "trainable": false}, "inbound_nodes": [[["bn3d_branch2a", 0, 0, {}]]], "class_name": "Activation"}, {"name": "res3d_branch2b", "config": {"name": "res3d_branch2b", "strides": [1, 1], "activity_regularizer": null, "kernel_initializer": {"config": {"scale": 1.0, "distribution": "uniform", "mode": "fan_avg", "seed": null}, "class_name": "VarianceScaling"}, "kernel_constraint": null, "bias_constraint": null, "data_format": "channels_last", "trainable": false, "bias_regularizer": null, "dilation_rate": [1, 1], "use_bias": true, "activation": "linear", "bias_initializer": {"config": {}, "class_name": "Zeros"}, "kernel_size": [3, 3], "kernel_regularizer": null, "filters": 128, "padding": "same"}, "inbound_nodes": [[["activation_20", 0, 0, {}]]], "class_name": "Conv2D"}, {"name": "bn3d_branch2b", "config": {"momentum": 0.99, "name": "bn3d_branch2b", "moving_variance_initializer": {"config": {}, "class_name": "Ones"}, "beta_initializer": {"config": {}, "class_name": "Zeros"}, "axis": 3, "center": true, "beta_regularizer": null, "gamma_constraint": null, "trainable": false, "moving_mean_initializer": {"config": {}, "class_name": "Zeros"}, "scale": true, "gamma_initializer": {"config": {}, "class_name": "Ones"}, "beta_constraint": null, "epsilon": 0.001, "gamma_regularizer": null}, "inbound_nodes": [[["res3d_branch2b", 0, 0, {}]]], "class_name": "BatchNormalization"}, {"name": "activation_21", "config": {"name": "activation_21", "activation": "relu", "trainable": false}, "inbound_nodes": [[["bn3d_branch2b", 0, 0, {}]]], "class_name": "Activation"}, {"name": "res3d_branch2c", "config": {"name": "res3d_branch2c", "strides": [1, 1], "activity_regularizer": null, "kernel_initializer": {"config": {"scale": 1.0, "distribution": "uniform", "mode": "fan_avg", "seed": null}, "class_name": "VarianceScaling"}, "kernel_constraint": null, "bias_constraint": null, "data_format": "channels_last", "trainable": false, "bias_regularizer": null, "dilation_rate": [1, 1], "use_bias": true, "activation": "linear", "bias_initializer": {"config": {}, "class_name": "Zeros"}, "kernel_size": [1, 1], "kernel_regularizer": null, "filters": 512, "padding": "valid"}, "inbound_nodes": [[["activation_21", 0, 0, {}]]], "class_name": "Conv2D"}, {"name": "bn3d_branch2c", "config": {"momentum": 0.99, "name": "bn3d_branch2c", "moving_variance_initializer": {"config": {}, "class_name": "Ones"}, "beta_initializer": {"config": {}, "class_name": "Zeros"}, "axis": 3, "center": true, "beta_regularizer": null, "gamma_constraint": null, "trainable": false, "moving_mean_initializer": {"config": {}, "class_name": "Zeros"}, "scale": true, "gamma_initializer": {"config": {}, "class_name": "Ones"}, "beta_constraint": null, "epsilon": 0.001, "gamma_regularizer": null}, "inbound_nodes": [[["res3d_branch2c", 0, 0, {}]]], "class_name": "BatchNormalization"}, {"name": "add_7", "config": {"name": "add_7", "trainable": false}, "inbound_nodes": [[["bn3d_branch2c", 0, 0, {}], ["activation_19", 0, 0, {}]]], "class_name": "Add"}, {"name": "activation_22", "config": {"name": "activation_22", "activation": "relu", "trainable": false}, "inbound_nodes": [[["add_7", 0, 0, {}]]], "class_name": "Activation"}, {"name": "res4a_branch2a", "config": {"name": "res4a_branch2a", "strides": [2, 2], "activity_regularizer": null, "kernel_initializer": {"config": {"scale": 1.0, "distribution": "uniform", "mode": "fan_avg", "seed": null}, "class_name": "VarianceScaling"}, "kernel_constraint": null, "bias_constraint": null, "data_format": "channels_last", "trainable": false, "bias_regularizer": null, "dilation_rate": [1, 1], "use_bias": true, "activation": "linear", "bias_initializer": {"config": {}, "class_name": "Zeros"}, "kernel_size": [1, 1], "kernel_regularizer": null, "filters": 256, "padding": "valid"}, "inbound_nodes": [[["activation_22", 0, 0, {}]]], "class_name": "Conv2D"}, {"name": "bn4a_branch2a", "config": {"momentum": 0.99, "name": "bn4a_branch2a", "moving_variance_initializer": {"config": {}, "class_name": "Ones"}, "beta_initializer": {"config": {}, "class_name": "Zeros"}, "axis": 3, "center": true, "beta_regularizer": null, "gamma_constraint": null, "trainable": false, "moving_mean_initializer": {"config": {}, "class_name": "Zeros"}, "scale": true, "gamma_initializer": {"config": {}, "class_name": "Ones"}, "beta_constraint": null, "epsilon": 0.001, "gamma_regularizer": null}, "inbound_nodes": [[["res4a_branch2a", 0, 0, {}]]], "class_name": "BatchNormalization"}, {"name": "activation_23", "config": {"name": "activation_23", "activation": "relu", "trainable": false}, "inbound_nodes": [[["bn4a_branch2a", 0, 0, {}]]], "class_name": "Activation"}, {"name": "res4a_branch2b", "config": {"name": "res4a_branch2b", "strides": [1, 1], "activity_regularizer": null, "kernel_initializer": {"config": {"scale": 1.0, "distribution": "uniform", "mode": "fan_avg", "seed": null}, "class_name": "VarianceScaling"}, "kernel_constraint": null, "bias_constraint": null, "data_format": "channels_last", "trainable": false, "bias_regularizer": null, "dilation_rate": [1, 1], "use_bias": true, "activation": "linear", "bias_initializer": {"config": {}, "class_name": "Zeros"}, "kernel_size": [3, 3], "kernel_regularizer": null, "filters": 256, "padding": "same"}, "inbound_nodes": [[["activation_23", 0, 0, {}]]], "class_name": "Conv2D"}, {"name": "bn4a_branch2b", "config": {"momentum": 0.99, "name": "bn4a_branch2b", "moving_variance_initializer": {"config": {}, "class_name": "Ones"}, "beta_initializer": {"config": {}, "class_name": "Zeros"}, "axis": 3, "center": true, "beta_regularizer": null, "gamma_constraint": null, "trainable": false, "moving_mean_initializer": {"config": {}, "class_name": "Zeros"}, "scale": true, "gamma_initializer": {"config": {}, "class_name": "Ones"}, "beta_constraint": null, "epsilon": 0.001, "gamma_regularizer": null}, "inbound_nodes": [[["res4a_branch2b", 0, 0, {}]]], "class_name": "BatchNormalization"}, {"name": "activation_24", "config": {"name": "activation_24", "activation": "relu", "trainable": false}, "inbound_nodes": [[["bn4a_branch2b", 0, 0, {}]]], "class_name": "Activation"}, {"name": "res4a_branch2c", "config": {"name": "res4a_branch2c", "strides": [1, 1], "activity_regularizer": null, "kernel_initializer": {"config": {"scale": 1.0, "distribution": "uniform", "mode": "fan_avg", "seed": null}, "class_name": "VarianceScaling"}, "kernel_constraint": null, "bias_constraint": null, "data_format": "channels_last", "trainable": false, "bias_regularizer": null, "dilation_rate": [1, 1], "use_bias": true, "activation": "linear", "bias_initializer": {"config": {}, "class_name": "Zeros"}, "kernel_size": [1, 1], "kernel_regularizer": null, "filters": 1024, "padding": "valid"}, "inbound_nodes": [[["activation_24", 0, 0, {}]]], "class_name": "Conv2D"}, {"name": "res4a_branch1", "config": {"name": "res4a_branch1", "strides": [2, 2], "activity_regularizer": null, "kernel_initializer": {"config": {"scale": 1.0, "distribution": "uniform", "mode": "fan_avg", "seed": null}, "class_name": "VarianceScaling"}, "kernel_constraint": null, "bias_constraint": null, "data_format": "channels_last", "trainable": false, "bias_regularizer": null, "dilation_rate": [1, 1], "use_bias": true, "activation": "linear", "bias_initializer": {"config": {}, "class_name": "Zeros"}, "kernel_size": [1, 1], "kernel_regularizer": null, "filters": 1024, "padding": "valid"}, "inbound_nodes": [[["activation_22", 0, 0, {}]]], "class_name": "Conv2D"}, {"name": "bn4a_branch2c", "config": {"momentum": 0.99, "name": "bn4a_branch2c", "moving_variance_initializer": {"config": {}, "class_name": "Ones"}, "beta_initializer": {"config": {}, "class_name": "Zeros"}, "axis": 3, "center": true, "beta_regularizer": null, "gamma_constraint": null, "trainable": false, "moving_mean_initializer": {"config": {}, "class_name": "Zeros"}, "scale": true, "gamma_initializer": {"config": {}, "class_name": "Ones"}, "beta_constraint": null, "epsilon": 0.001, "gamma_regularizer": null}, "inbound_nodes": [[["res4a_branch2c", 0, 0, {}]]], "class_name": "BatchNormalization"}, {"name": "bn4a_branch1", "config": {"momentum": 0.99, "name": "bn4a_branch1", "moving_variance_initializer": {"config": {}, "class_name": "Ones"}, "beta_initializer": {"config": {}, "class_name": "Zeros"}, "axis": 3, "center": true, "beta_regularizer": null, "gamma_constraint": null, "trainable": false, "moving_mean_initializer": {"config": {}, "class_name": "Zeros"}, "scale": true, "gamma_initializer": {"config": {}, "class_name": "Ones"}, "beta_constraint": null, "epsilon": 0.001, "gamma_regularizer": null}, "inbound_nodes": [[["res4a_branch1", 0, 0, {}]]], "class_name": "BatchNormalization"}, {"name": "add_8", "config": {"name": "add_8", "trainable": false}, "inbound_nodes": [[["bn4a_branch2c", 0, 0, {}], ["bn4a_branch1", 0, 0, {}]]], "class_name": "Add"}, {"name": "activation_25", "config": {"name": "activation_25", "activation": "relu", "trainable": false}, "inbound_nodes": [[["add_8", 0, 0, {}]]], "class_name": "Activation"}, {"name": "res4b_branch2a", "config": {"name": "res4b_branch2a", "strides": [1, 1], "activity_regularizer": null, "kernel_initializer": {"config": {"scale": 1.0, "distribution": "uniform", "mode": "fan_avg", "seed": null}, "class_name": "VarianceScaling"}, "kernel_constraint": null, "bias_constraint": null, "data_format": "channels_last", "trainable": false, "bias_regularizer": null, "dilation_rate": [1, 1], "use_bias": true, "activation": "linear", "bias_initializer": {"config": {}, "class_name": "Zeros"}, "kernel_size": [1, 1], "kernel_regularizer": null, "filters": 256, "padding": "valid"}, "inbound_nodes": [[["activation_25", 0, 0, {}]]], "class_name": "Conv2D"}, {"name": "bn4b_branch2a", "config": {"momentum": 0.99, "name": "bn4b_branch2a", "moving_variance_initializer": {"config": {}, "class_name": "Ones"}, "beta_initializer": {"config": {}, "class_name": "Zeros"}, "axis": 3, "center": true, "beta_regularizer": null, "gamma_constraint": null, "trainable": false, "moving_mean_initializer": {"config": {}, "class_name": "Zeros"}, "scale": true, "gamma_initializer": {"config": {}, "class_name": "Ones"}, "beta_constraint": null, "epsilon": 0.001, "gamma_regularizer": null}, "inbound_nodes": [[["res4b_branch2a", 0, 0, {}]]], "class_name": "BatchNormalization"}, {"name": "activation_26", "config": {"name": "activation_26", "activation": "relu", "trainable": false}, "inbound_nodes": [[["bn4b_branch2a", 0, 0, {}]]], "class_name": "Activation"}, {"name": "res4b_branch2b", "config": {"name": "res4b_branch2b", "strides": [1, 1], "activity_regularizer": null, "kernel_initializer": {"config": {"scale": 1.0, "distribution": "uniform", "mode": "fan_avg", "seed": null}, "class_name": "VarianceScaling"}, "kernel_constraint": null, "bias_constraint": null, "data_format": "channels_last", "trainable": false, "bias_regularizer": null, "dilation_rate": [1, 1], "use_bias": true, "activation": "linear", "bias_initializer": {"config": {}, "class_name": "Zeros"}, "kernel_size": [3, 3], "kernel_regularizer": null, "filters": 256, "padding": "same"}, "inbound_nodes": [[["activation_26", 0, 0, {}]]], "class_name": "Conv2D"}, {"name": "bn4b_branch2b", "config": {"momentum": 0.99, "name": "bn4b_branch2b", "moving_variance_initializer": {"config": {}, "class_name": "Ones"}, "beta_initializer": {"config": {}, "class_name": "Zeros"}, "axis": 3, "center": true, "beta_regularizer": null, "gamma_constraint": null, "trainable": false, "moving_mean_initializer": {"config": {}, "class_name": "Zeros"}, "scale": true, "gamma_initializer": {"config": {}, "class_name": "Ones"}, "beta_constraint": null, "epsilon": 0.001, "gamma_regularizer": null}, "inbound_nodes": [[["res4b_branch2b", 0, 0, {}]]], "class_name": "BatchNormalization"}, {"name": "activation_27", "config": {"name": "activation_27", "activation": "relu", "trainable": false}, "inbound_nodes": [[["bn4b_branch2b", 0, 0, {}]]], "class_name": "Activation"}, {"name": "res4b_branch2c", "config": {"name": "res4b_branch2c", "strides": [1, 1], "activity_regularizer": null, "kernel_initializer": {"config": {"scale": 1.0, "distribution": "uniform", "mode": "fan_avg", "seed": null}, "class_name": "VarianceScaling"}, "kernel_constraint": null, "bias_constraint": null, "data_format": "channels_last", "trainable": false, "bias_regularizer": null, "dilation_rate": [1, 1], "use_bias": true, "activation": "linear", "bias_initializer": {"config": {}, "class_name": "Zeros"}, "kernel_size": [1, 1], "kernel_regularizer": null, "filters": 1024, "padding": "valid"}, "inbound_nodes": [[["activation_27", 0, 0, {}]]], "class_name": "Conv2D"}, {"name": "bn4b_branch2c", "config": {"momentum": 0.99, "name": "bn4b_branch2c", "moving_variance_initializer": {"config": {}, "class_name": "Ones"}, "beta_initializer": {"config": {}, "class_name": "Zeros"}, "axis": 3, "center": true, "beta_regularizer": null, "gamma_constraint": null, "trainable": false, "moving_mean_initializer": {"config": {}, "class_name": "Zeros"}, "scale": true, "gamma_initializer": {"config": {}, "class_name": "Ones"}, "beta_constraint": null, "epsilon": 0.001, "gamma_regularizer": null}, "inbound_nodes": [[["res4b_branch2c", 0, 0, {}]]], "class_name": "BatchNormalization"}, {"name": "add_9", "config": {"name": "add_9", "trainable": false}, "inbound_nodes": [[["bn4b_branch2c", 0, 0, {}], ["activation_25", 0, 0, {}]]], "class_name": "Add"}, {"name": "activation_28", "config": {"name": "activation_28", "activation": "relu", "trainable": false}, "inbound_nodes": [[["add_9", 0, 0, {}]]], "class_name": "Activation"}, {"name": "res4c_branch2a", "config": {"name": "res4c_branch2a", "strides": [1, 1], "activity_regularizer": null, "kernel_initializer": {"config": {"scale": 1.0, "distribution": "uniform", "mode": "fan_avg", "seed": null}, "class_name": "VarianceScaling"}, "kernel_constraint": null, "bias_constraint": null, "data_format": "channels_last", "trainable": false, "bias_regularizer": null, "dilation_rate": [1, 1], "use_bias": true, "activation": "linear", "bias_initializer": {"config": {}, "class_name": "Zeros"}, "kernel_size": [1, 1], "kernel_regularizer": null, "filters": 256, "padding": "valid"}, "inbound_nodes": [[["activation_28", 0, 0, {}]]], "class_name": "Conv2D"}, {"name": "bn4c_branch2a", "config": {"momentum": 0.99, "name": "bn4c_branch2a", "moving_variance_initializer": {"config": {}, "class_name": "Ones"}, "beta_initializer": {"config": {}, "class_name": "Zeros"}, "axis": 3, "center": true, "beta_regularizer": null, "gamma_constraint": null, "trainable": false, "moving_mean_initializer": {"config": {}, "class_name": "Zeros"}, "scale": true, "gamma_initializer": {"config": {}, "class_name": "Ones"}, "beta_constraint": null, "epsilon": 0.001, "gamma_regularizer": null}, "inbound_nodes": [[["res4c_branch2a", 0, 0, {}]]], "class_name": "BatchNormalization"}, {"name": "activation_29", "config": {"name": "activation_29", "activation": "relu", "trainable": false}, "inbound_nodes": [[["bn4c_branch2a", 0, 0, {}]]], "class_name": "Activation"}, {"name": "res4c_branch2b", "config": {"name": "res4c_branch2b", "strides": [1, 1], "activity_regularizer": null, "kernel_initializer": {"config": {"scale": 1.0, "distribution": "uniform", "mode": "fan_avg", "seed": null}, "class_name": "VarianceScaling"}, "kernel_constraint": null, "bias_constraint": null, "data_format": "channels_last", "trainable": false, "bias_regularizer": null, "dilation_rate": [1, 1], "use_bias": true, "activation": "linear", "bias_initializer": {"config": {}, "class_name": "Zeros"}, "kernel_size": [3, 3], "kernel_regularizer": null, "filters": 256, "padding": "same"}, "inbound_nodes": [[["activation_29", 0, 0, {}]]], "class_name": "Conv2D"}, {"name": "bn4c_branch2b", "config": {"momentum": 0.99, "name": "bn4c_branch2b", "moving_variance_initializer": {"config": {}, "class_name": "Ones"}, "beta_initializer": {"config": {}, "class_name": "Zeros"}, "axis": 3, "center": true, "beta_regularizer": null, "gamma_constraint": null, "trainable": false, "moving_mean_initializer": {"config": {}, "class_name": "Zeros"}, "scale": true, "gamma_initializer": {"config": {}, "class_name": "Ones"}, "beta_constraint": null, "epsilon": 0.001, "gamma_regularizer": null}, "inbound_nodes": [[["res4c_branch2b", 0, 0, {}]]], "class_name": "BatchNormalization"}, {"name": "activation_30", "config": {"name": "activation_30", "activation": "relu", "trainable": false}, "inbound_nodes": [[["bn4c_branch2b", 0, 0, {}]]], "class_name": "Activation"}, {"name": "res4c_branch2c", "config": {"name": "res4c_branch2c", "strides": [1, 1], "activity_regularizer": null, "kernel_initializer": {"config": {"scale": 1.0, "distribution": "uniform", "mode": "fan_avg", "seed": null}, "class_name": "VarianceScaling"}, "kernel_constraint": null, "bias_constraint": null, "data_format": "channels_last", "trainable": false, "bias_regularizer": null, "dilation_rate": [1, 1], "use_bias": true, "activation": "linear", "bias_initializer": {"config": {}, "class_name": "Zeros"}, "kernel_size": [1, 1], "kernel_regularizer": null, "filters": 1024, "padding": "valid"}, "inbound_nodes": [[["activation_30", 0, 0, {}]]], "class_name": "Conv2D"}, {"name": "bn4c_branch2c", "config": {"momentum": 0.99, "name": "bn4c_branch2c", "moving_variance_initializer": {"config": {}, "class_name": "Ones"}, "beta_initializer": {"config": {}, "class_name": "Zeros"}, "axis": 3, "center": true, "beta_regularizer": null, "gamma_constraint": null, "trainable": false, "moving_mean_initializer": {"config": {}, "class_name": "Zeros"}, "scale": true, "gamma_initializer": {"config": {}, "class_name": "Ones"}, "beta_constraint": null, "epsilon": 0.001, "gamma_regularizer": null}, "inbound_nodes": [[["res4c_branch2c", 0, 0, {}]]], "class_name": "BatchNormalization"}, {"name": "add_10", "config": {"name": "add_10", "trainable": false}, "inbound_nodes": [[["bn4c_branch2c", 0, 0, {}], ["activation_28", 0, 0, {}]]], "class_name": "Add"}, {"name": "activation_31", "config": {"name": "activation_31", "activation": "relu", "trainable": false}, "inbound_nodes": [[["add_10", 0, 0, {}]]], "class_name": "Activation"}, {"name": "res4d_branch2a", "config": {"name": "res4d_branch2a", "strides": [1, 1], "activity_regularizer": null, "kernel_initializer": {"config": {"scale": 1.0, "distribution": "uniform", "mode": "fan_avg", "seed": null}, "class_name": "VarianceScaling"}, "kernel_constraint": null, "bias_constraint": null, "data_format": "channels_last", "trainable": false, "bias_regularizer": null, "dilation_rate": [1, 1], "use_bias": true, "activation": "linear", "bias_initializer": {"config": {}, "class_name": "Zeros"}, "kernel_size": [1, 1], "kernel_regularizer": null, "filters": 256, "padding": "valid"}, "inbound_nodes": [[["activation_31", 0, 0, {}]]], "class_name": "Conv2D"}, {"name": "bn4d_branch2a", "config": {"momentum": 0.99, "name": "bn4d_branch2a", "moving_variance_initializer": {"config": {}, "class_name": "Ones"}, "beta_initializer": {"config": {}, "class_name": "Zeros"}, "axis": 3, "center": true, "beta_regularizer": null, "gamma_constraint": null, "trainable": false, "moving_mean_initializer": {"config": {}, "class_name": "Zeros"}, "scale": true, "gamma_initializer": {"config": {}, "class_name": "Ones"}, "beta_constraint": null, "epsilon": 0.001, "gamma_regularizer": null}, "inbound_nodes": [[["res4d_branch2a", 0, 0, {}]]], "class_name": "BatchNormalization"}, {"name": "activation_32", "config": {"name": "activation_32", "activation": "relu", "trainable": false}, "inbound_nodes": [[["bn4d_branch2a", 0, 0, {}]]], "class_name": "Activation"}, {"name": "res4d_branch2b", "config": {"name": "res4d_branch2b", "strides": [1, 1], "activity_regularizer": null, "kernel_initializer": {"config": {"scale": 1.0, "distribution": "uniform", "mode": "fan_avg", "seed": null}, "class_name": "VarianceScaling"}, "kernel_constraint": null, "bias_constraint": null, "data_format": "channels_last", "trainable": false, "bias_regularizer": null, "dilation_rate": [1, 1], "use_bias": true, "activation": "linear", "bias_initializer": {"config": {}, "class_name": "Zeros"}, "kernel_size": [3, 3], "kernel_regularizer": null, "filters": 256, "padding": "same"}, "inbound_nodes": [[["activation_32", 0, 0, {}]]], "class_name": "Conv2D"}, {"name": "bn4d_branch2b", "config": {"momentum": 0.99, "name": "bn4d_branch2b", "moving_variance_initializer": {"config": {}, "class_name": "Ones"}, "beta_initializer": {"config": {}, "class_name": "Zeros"}, "axis": 3, "center": true, "beta_regularizer": null, "gamma_constraint": null, "trainable": false, "moving_mean_initializer": {"config": {}, "class_name": "Zeros"}, "scale": true, "gamma_initializer": {"config": {}, "class_name": "Ones"}, "beta_constraint": null, "epsilon": 0.001, "gamma_regularizer": null}, "inbound_nodes": [[["res4d_branch2b", 0, 0, {}]]], "class_name": "BatchNormalization"}, {"name": "activation_33", "config": {"name": "activation_33", "activation": "relu", "trainable": false}, "inbound_nodes": [[["bn4d_branch2b", 0, 0, {}]]], "class_name": "Activation"}, {"name": "res4d_branch2c", "config": {"name": "res4d_branch2c", "strides": [1, 1], "activity_regularizer": null, "kernel_initializer": {"config": {"scale": 1.0, "distribution": "uniform", "mode": "fan_avg", "seed": null}, "class_name": "VarianceScaling"}, "kernel_constraint": null, "bias_constraint": null, "data_format": "channels_last", "trainable": false, "bias_regularizer": null, "dilation_rate": [1, 1], "use_bias": true, "activation": "linear", "bias_initializer": {"config": {}, "class_name": "Zeros"}, "kernel_size": [1, 1], "kernel_regularizer": null, "filters": 1024, "padding": "valid"}, "inbound_nodes": [[["activation_33", 0, 0, {}]]], "class_name": "Conv2D"}, {"name": "bn4d_branch2c", "config": {"momentum": 0.99, "name": "bn4d_branch2c", "moving_variance_initializer": {"config": {}, "class_name": "Ones"}, "beta_initializer": {"config": {}, "class_name": "Zeros"}, "axis": 3, "center": true, "beta_regularizer": null, "gamma_constraint": null, "trainable": false, "moving_mean_initializer": {"config": {}, "class_name": "Zeros"}, "scale": true, "gamma_initializer": {"config": {}, "class_name": "Ones"}, "beta_constraint": null, "epsilon": 0.001, "gamma_regularizer": null}, "inbound_nodes": [[["res4d_branch2c", 0, 0, {}]]], "class_name": "BatchNormalization"}, {"name": "add_11", "config": {"name": "add_11", "trainable": false}, "inbound_nodes": [[["bn4d_branch2c", 0, 0, {}], ["activation_31", 0, 0, {}]]], "class_name": "Add"}, {"name": "activation_34", "config": {"name": "activation_34", "activation": "relu", "trainable": false}, "inbound_nodes": [[["add_11", 0, 0, {}]]], "class_name": "Activation"}, {"name": "res4e_branch2a", "config": {"name": "res4e_branch2a", "strides": [1, 1], "activity_regularizer": null, "kernel_initializer": {"config": {"scale": 1.0, "distribution": "uniform", "mode": "fan_avg", "seed": null}, "class_name": "VarianceScaling"}, "kernel_constraint": null, "bias_constraint": null, "data_format": "channels_last", "trainable": false, "bias_regularizer": null, "dilation_rate": [1, 1], "use_bias": true, "activation": "linear", "bias_initializer": {"config": {}, "class_name": "Zeros"}, "kernel_size": [1, 1], "kernel_regularizer": null, "filters": 256, "padding": "valid"}, "inbound_nodes": [[["activation_34", 0, 0, {}]]], "class_name": "Conv2D"}, {"name": "bn4e_branch2a", "config": {"momentum": 0.99, "name": "bn4e_branch2a", "moving_variance_initializer": {"config": {}, "class_name": "Ones"}, "beta_initializer": {"config": {}, "class_name": "Zeros"}, "axis": 3, "center": true, "beta_regularizer": null, "gamma_constraint": null, "trainable": false, "moving_mean_initializer": {"config": {}, "class_name": "Zeros"}, "scale": true, "gamma_initializer": {"config": {}, "class_name": "Ones"}, "beta_constraint": null, "epsilon": 0.001, "gamma_regularizer": null}, "inbound_nodes": [[["res4e_branch2a", 0, 0, {}]]], "class_name": "BatchNormalization"}, {"name": "activation_35", "config": {"name": "activation_35", "activation": "relu", "trainable": false}, "inbound_nodes": [[["bn4e_branch2a", 0, 0, {}]]], "class_name": "Activation"}, {"name": "res4e_branch2b", "config": {"name": "res4e_branch2b", "strides": [1, 1], "activity_regularizer": null, "kernel_initializer": {"config": {"scale": 1.0, "distribution": "uniform", "mode": "fan_avg", "seed": null}, "class_name": "VarianceScaling"}, "kernel_constraint": null, "bias_constraint": null, "data_format": "channels_last", "trainable": false, "bias_regularizer": null, "dilation_rate": [1, 1], "use_bias": true, "activation": "linear", "bias_initializer": {"config": {}, "class_name": "Zeros"}, "kernel_size": [3, 3], "kernel_regularizer": null, "filters": 256, "padding": "same"}, "inbound_nodes": [[["activation_35", 0, 0, {}]]], "class_name": "Conv2D"}, {"name": "bn4e_branch2b", "config": {"momentum": 0.99, "name": "bn4e_branch2b", "moving_variance_initializer": {"config": {}, "class_name": "Ones"}, "beta_initializer": {"config": {}, "class_name": "Zeros"}, "axis": 3, "center": true, "beta_regularizer": null, "gamma_constraint": null, "trainable": false, "moving_mean_initializer": {"config": {}, "class_name": "Zeros"}, "scale": true, "gamma_initializer": {"config": {}, "class_name": "Ones"}, "beta_constraint": null, "epsilon": 0.001, "gamma_regularizer": null}, "inbound_nodes": [[["res4e_branch2b", 0, 0, {}]]], "class_name": "BatchNormalization"}, {"name": "activation_36", "config": {"name": "activation_36", "activation": "relu", "trainable": false}, "inbound_nodes": [[["bn4e_branch2b", 0, 0, {}]]], "class_name": "Activation"}, {"name": "res4e_branch2c", "config": {"name": "res4e_branch2c", "strides": [1, 1], "activity_regularizer": null, "kernel_initializer": {"config": {"scale": 1.0, "distribution": "uniform", "mode": "fan_avg", "seed": null}, "class_name": "VarianceScaling"}, "kernel_constraint": null, "bias_constraint": null, "data_format": "channels_last", "trainable": false, "bias_regularizer": null, "dilation_rate": [1, 1], "use_bias": true, "activation": "linear", "bias_initializer": {"config": {}, "class_name": "Zeros"}, "kernel_size": [1, 1], "kernel_regularizer": null, "filters": 1024, "padding": "valid"}, "inbound_nodes": [[["activation_36", 0, 0, {}]]], "class_name": "Conv2D"}, {"name": "bn4e_branch2c", "config": {"momentum": 0.99, "name": "bn4e_branch2c", "moving_variance_initializer": {"config": {}, "class_name": "Ones"}, "beta_initializer": {"config": {}, "class_name": "Zeros"}, "axis": 3, "center": true, "beta_regularizer": null, "gamma_constraint": null, "trainable": false, "moving_mean_initializer": {"config": {}, "class_name": "Zeros"}, "scale": true, "gamma_initializer": {"config": {}, "class_name": "Ones"}, "beta_constraint": null, "epsilon": 0.001, "gamma_regularizer": null}, "inbound_nodes": [[["res4e_branch2c", 0, 0, {}]]], "class_name": "BatchNormalization"}, {"name": "add_12", "config": {"name": "add_12", "trainable": false}, "inbound_nodes": [[["bn4e_branch2c", 0, 0, {}], ["activation_34", 0, 0, {}]]], "class_name": "Add"}, {"name": "activation_37", "config": {"name": "activation_37", "activation": "relu", "trainable": false}, "inbound_nodes": [[["add_12", 0, 0, {}]]], "class_name": "Activation"}, {"name": "res4f_branch2a", "config": {"name": "res4f_branch2a", "strides": [1, 1], "activity_regularizer": null, "kernel_initializer": {"config": {"scale": 1.0, "distribution": "uniform", "mode": "fan_avg", "seed": null}, "class_name": "VarianceScaling"}, "kernel_constraint": null, "bias_constraint": null, "data_format": "channels_last", "trainable": false, "bias_regularizer": null, "dilation_rate": [1, 1], "use_bias": true, "activation": "linear", "bias_initializer": {"config": {}, "class_name": "Zeros"}, "kernel_size": [1, 1], "kernel_regularizer": null, "filters": 256, "padding": "valid"}, "inbound_nodes": [[["activation_37", 0, 0, {}]]], "class_name": "Conv2D"}, {"name": "bn4f_branch2a", "config": {"momentum": 0.99, "name": "bn4f_branch2a", "moving_variance_initializer": {"config": {}, "class_name": "Ones"}, "beta_initializer": {"config": {}, "class_name": "Zeros"}, "axis": 3, "center": true, "beta_regularizer": null, "gamma_constraint": null, "trainable": false, "moving_mean_initializer": {"config": {}, "class_name": "Zeros"}, "scale": true, "gamma_initializer": {"config": {}, "class_name": "Ones"}, "beta_constraint": null, "epsilon": 0.001, "gamma_regularizer": null}, "inbound_nodes": [[["res4f_branch2a", 0, 0, {}]]], "class_name": "BatchNormalization"}, {"name": "activation_38", "config": {"name": "activation_38", "activation": "relu", "trainable": false}, "inbound_nodes": [[["bn4f_branch2a", 0, 0, {}]]], "class_name": "Activation"}, {"name": "res4f_branch2b", "config": {"name": "res4f_branch2b", "strides": [1, 1], "activity_regularizer": null, "kernel_initializer": {"config": {"scale": 1.0, "distribution": "uniform", "mode": "fan_avg", "seed": null}, "class_name": "VarianceScaling"}, "kernel_constraint": null, "bias_constraint": null, "data_format": "channels_last", "trainable": false, "bias_regularizer": null, "dilation_rate": [1, 1], "use_bias": true, "activation": "linear", "bias_initializer": {"config": {}, "class_name": "Zeros"}, "kernel_size": [3, 3], "kernel_regularizer": null, "filters": 256, "padding": "same"}, "inbound_nodes": [[["activation_38", 0, 0, {}]]], "class_name": "Conv2D"}, {"name": "bn4f_branch2b", "config": {"momentum": 0.99, "name": "bn4f_branch2b", "moving_variance_initializer": {"config": {}, "class_name": "Ones"}, "beta_initializer": {"config": {}, "class_name": "Zeros"}, "axis": 3, "center": true, "beta_regularizer": null, "gamma_constraint": null, "trainable": false, "moving_mean_initializer": {"config": {}, "class_name": "Zeros"}, "scale": true, "gamma_initializer": {"config": {}, "class_name": "Ones"}, "beta_constraint": null, "epsilon": 0.001, "gamma_regularizer": null}, "inbound_nodes": [[["res4f_branch2b", 0, 0, {}]]], "class_name": "BatchNormalization"}, {"name": "activation_39", "config": {"name": "activation_39", "activation": "relu", "trainable": false}, "inbound_nodes": [[["bn4f_branch2b", 0, 0, {}]]], "class_name": "Activation"}, {"name": "res4f_branch2c", "config": {"name": "res4f_branch2c", "strides": [1, 1], "activity_regularizer": null, "kernel_initializer": {"config": {"scale": 1.0, "distribution": "uniform", "mode": "fan_avg", "seed": null}, "class_name": "VarianceScaling"}, "kernel_constraint": null, "bias_constraint": null, "data_format": "channels_last", "trainable": false, "bias_regularizer": null, "dilation_rate": [1, 1], "use_bias": true, "activation": "linear", "bias_initializer": {"config": {}, "class_name": "Zeros"}, "kernel_size": [1, 1], "kernel_regularizer": null, "filters": 1024, "padding": "valid"}, "inbound_nodes": [[["activation_39", 0, 0, {}]]], "class_name": "Conv2D"}, {"name": "bn4f_branch2c", "config": {"momentum": 0.99, "name": "bn4f_branch2c", "moving_variance_initializer": {"config": {}, "class_name": "Ones"}, "beta_initializer": {"config": {}, "class_name": "Zeros"}, "axis": 3, "center": true, "beta_regularizer": null, "gamma_constraint": null, "trainable": false, "moving_mean_initializer": {"config": {}, "class_name": "Zeros"}, "scale": true, "gamma_initializer": {"config": {}, "class_name": "Ones"}, "beta_constraint": null, "epsilon": 0.001, "gamma_regularizer": null}, "inbound_nodes": [[["res4f_branch2c", 0, 0, {}]]], "class_name": "BatchNormalization"}, {"name": "add_13", "config": {"name": "add_13", "trainable": false}, "inbound_nodes": [[["bn4f_branch2c", 0, 0, {}], ["activation_37", 0, 0, {}]]], "class_name": "Add"}, {"name": "activation_40", "config": {"name": "activation_40", "activation": "relu", "trainable": false}, "inbound_nodes": [[["add_13", 0, 0, {}]]], "class_name": "Activation"}, {"name": "res5a_branch2a", "config": {"name": "res5a_branch2a", "strides": [2, 2], "activity_regularizer": null, "kernel_initializer": {"config": {"scale": 1.0, "distribution": "uniform", "mode": "fan_avg", "seed": null}, "class_name": "VarianceScaling"}, "kernel_constraint": null, "bias_constraint": null, "data_format": "channels_last", "trainable": true, "bias_regularizer": null, "dilation_rate": [1, 1], "use_bias": true, "activation": "linear", "bias_initializer": {"config": {}, "class_name": "Zeros"}, "kernel_size": [1, 1], "kernel_regularizer": null, "filters": 512, "padding": "valid"}, "inbound_nodes": [[["activation_40", 0, 0, {}]]], "class_name": "Conv2D"}, {"name": "bn5a_branch2a", "config": {"momentum": 0.99, "name": "bn5a_branch2a", "moving_variance_initializer": {"config": {}, "class_name": "Ones"}, "beta_initializer": {"config": {}, "class_name": "Zeros"}, "axis": 3, "center": true, "beta_regularizer": null, "gamma_constraint": null, "trainable": true, "moving_mean_initializer": {"config": {}, "class_name": "Zeros"}, "scale": true, "gamma_initializer": {"config": {}, "class_name": "Ones"}, "beta_constraint": null, "epsilon": 0.001, "gamma_regularizer": null}, "inbound_nodes": [[["res5a_branch2a", 0, 0, {}]]], "class_name": "BatchNormalization"}, {"name": "activation_41", "config": {"name": "activation_41", "activation": "relu", "trainable": false}, "inbound_nodes": [[["bn5a_branch2a", 0, 0, {}]]], "class_name": "Activation"}, {"name": "res5a_branch2b", "config": {"name": "res5a_branch2b", "strides": [1, 1], "activity_regularizer": null, "kernel_initializer": {"config": {"scale": 1.0, "distribution": "uniform", "mode": "fan_avg", "seed": null}, "class_name": "VarianceScaling"}, "kernel_constraint": null, "bias_constraint": null, "data_format": "channels_last", "trainable": true, "bias_regularizer": null, "dilation_rate": [1, 1], "use_bias": true, "activation": "linear", "bias_initializer": {"config": {}, "class_name": "Zeros"}, "kernel_size": [3, 3], "kernel_regularizer": null, "filters": 512, "padding": "same"}, "inbound_nodes": [[["activation_41", 0, 0, {}]]], "class_name": "Conv2D"}, {"name": "bn5a_branch2b", "config": {"momentum": 0.99, "name": "bn5a_branch2b", "moving_variance_initializer": {"config": {}, "class_name": "Ones"}, "beta_initializer": {"config": {}, "class_name": "Zeros"}, "axis": 3, "center": true, "beta_regularizer": null, "gamma_constraint": null, "trainable": true, "moving_mean_initializer": {"config": {}, "class_name": "Zeros"}, "scale": true, "gamma_initializer": {"config": {}, "class_name": "Ones"}, "beta_constraint": null, "epsilon": 0.001, "gamma_regularizer": null}, "inbound_nodes": [[["res5a_branch2b", 0, 0, {}]]], "class_name": "BatchNormalization"}, {"name": "activation_42", "config": {"name": "activation_42", "activation": "relu", "trainable": false}, "inbound_nodes": [[["bn5a_branch2b", 0, 0, {}]]], "class_name": "Activation"}, {"name": "res5a_branch2c", "config": {"name": "res5a_branch2c", "strides": [1, 1], "activity_regularizer": null, "kernel_initializer": {"config": {"scale": 1.0, "distribution": "uniform", "mode": "fan_avg", "seed": null}, "class_name": "VarianceScaling"}, "kernel_constraint": null, "bias_constraint": null, "data_format": "channels_last", "trainable": true, "bias_regularizer": null, "dilation_rate": [1, 1], "use_bias": true, "activation": "linear", "bias_initializer": {"config": {}, "class_name": "Zeros"}, "kernel_size": [1, 1], "kernel_regularizer": null, "filters": 2048, "padding": "valid"}, "inbound_nodes": [[["activation_42", 0, 0, {}]]], "class_name": "Conv2D"}, {"name": "res5a_branch1", "config": {"name": "res5a_branch1", "strides": [2, 2], "activity_regularizer": null, "kernel_initializer": {"config": {"scale": 1.0, "distribution": "uniform", "mode": "fan_avg", "seed": null}, "class_name": "VarianceScaling"}, "kernel_constraint": null, "bias_constraint": null, "data_format": "channels_last", "trainable": true, "bias_regularizer": null, "dilation_rate": [1, 1], "use_bias": true, "activation": "linear", "bias_initializer": {"config": {}, "class_name": "Zeros"}, "kernel_size": [1, 1], "kernel_regularizer": null, "filters": 2048, "padding": "valid"}, "inbound_nodes": [[["activation_40", 0, 0, {}]]], "class_name": "Conv2D"}, {"name": "bn5a_branch2c", "config": {"momentum": 0.99, "name": "bn5a_branch2c", "moving_variance_initializer": {"config": {}, "class_name": "Ones"}, "beta_initializer": {"config": {}, "class_name": "Zeros"}, "axis": 3, "center": true, "beta_regularizer": null, "gamma_constraint": null, "trainable": true, "moving_mean_initializer": {"config": {}, "class_name": "Zeros"}, "scale": true, "gamma_initializer": {"config": {}, "class_name": "Ones"}, "beta_constraint": null, "epsilon": 0.001, "gamma_regularizer": null}, "inbound_nodes": [[["res5a_branch2c", 0, 0, {}]]], "class_name": "BatchNormalization"}, {"name": "bn5a_branch1", "config": {"momentum": 0.99, "name": "bn5a_branch1", "moving_variance_initializer": {"config": {}, "class_name": "Ones"}, "beta_initializer": {"config": {}, "class_name": "Zeros"}, "axis": 3, "center": true, "beta_regularizer": null, "gamma_constraint": null, "trainable": true, "moving_mean_initializer": {"config": {}, "class_name": "Zeros"}, "scale": true, "gamma_initializer": {"config": {}, "class_name": "Ones"}, "beta_constraint": null, "epsilon": 0.001, "gamma_regularizer": null}, "inbound_nodes": [[["res5a_branch1", 0, 0, {}]]], "class_name": "BatchNormalization"}, {"name": "add_14", "config": {"name": "add_14", "trainable": false}, "inbound_nodes": [[["bn5a_branch2c", 0, 0, {}], ["bn5a_branch1", 0, 0, {}]]], "class_name": "Add"}, {"name": "activation_43", "config": {"name": "activation_43", "activation": "relu", "trainable": false}, "inbound_nodes": [[["add_14", 0, 0, {}]]], "class_name": "Activation"}, {"name": "res5b_branch2a", "config": {"name": "res5b_branch2a", "strides": [1, 1], "activity_regularizer": null, "kernel_initializer": {"config": {"scale": 1.0, "distribution": "uniform", "mode": "fan_avg", "seed": null}, "class_name": "VarianceScaling"}, "kernel_constraint": null, "bias_constraint": null, "data_format": "channels_last", "trainable": true, "bias_regularizer": null, "dilation_rate": [1, 1], "use_bias": true, "activation": "linear", "bias_initializer": {"config": {}, "class_name": "Zeros"}, "kernel_size": [1, 1], "kernel_regularizer": null, "filters": 512, "padding": "valid"}, "inbound_nodes": [[["activation_43", 0, 0, {}]]], "class_name": "Conv2D"}, {"name": "bn5b_branch2a", "config": {"momentum": 0.99, "name": "bn5b_branch2a", "moving_variance_initializer": {"config": {}, "class_name": "Ones"}, "beta_initializer": {"config": {}, "class_name": "Zeros"}, "axis": 3, "center": true, "beta_regularizer": null, "gamma_constraint": null, "trainable": true, "moving_mean_initializer": {"config": {}, "class_name": "Zeros"}, "scale": true, "gamma_initializer": {"config": {}, "class_name": "Ones"}, "beta_constraint": null, "epsilon": 0.001, "gamma_regularizer": null}, "inbound_nodes": [[["res5b_branch2a", 0, 0, {}]]], "class_name": "BatchNormalization"}, {"name": "activation_44", "config": {"name": "activation_44", "activation": "relu", "trainable": false}, "inbound_nodes": [[["bn5b_branch2a", 0, 0, {}]]], "class_name": "Activation"}, {"name": "res5b_branch2b", "config": {"name": "res5b_branch2b", "strides": [1, 1], "activity_regularizer": null, "kernel_initializer": {"config": {"scale": 1.0, "distribution": "uniform", "mode": "fan_avg", "seed": null}, "class_name": "VarianceScaling"}, "kernel_constraint": null, "bias_constraint": null, "data_format": "channels_last", "trainable": true, "bias_regularizer": null, "dilation_rate": [1, 1], "use_bias": true, "activation": "linear", "bias_initializer": {"config": {}, "class_name": "Zeros"}, "kernel_size": [3, 3], "kernel_regularizer": null, "filters": 512, "padding": "same"}, "inbound_nodes": [[["activation_44", 0, 0, {}]]], "class_name": "Conv2D"}, {"name": "bn5b_branch2b", "config": {"momentum": 0.99, "name": "bn5b_branch2b", "moving_variance_initializer": {"config": {}, "class_name": "Ones"}, "beta_initializer": {"config": {}, "class_name": "Zeros"}, "axis": 3, "center": true, "beta_regularizer": null, "gamma_constraint": null, "trainable": true, "moving_mean_initializer": {"config": {}, "class_name": "Zeros"}, "scale": true, "gamma_initializer": {"config": {}, "class_name": "Ones"}, "beta_constraint": null, "epsilon": 0.001, "gamma_regularizer": null}, "inbound_nodes": [[["res5b_branch2b", 0, 0, {}]]], "class_name": "BatchNormalization"}, {"name": "activation_45", "config": {"name": "activation_45", "activation": "relu", "trainable": false}, "inbound_nodes": [[["bn5b_branch2b", 0, 0, {}]]], "class_name": "Activation"}, {"name": "res5b_branch2c", "config": {"name": "res5b_branch2c", "strides": [1, 1], "activity_regularizer": null, "kernel_initializer": {"config": {"scale": 1.0, "distribution": "uniform", "mode": "fan_avg", "seed": null}, "class_name": "VarianceScaling"}, "kernel_constraint": null, "bias_constraint": null, "data_format": "channels_last", "trainable": true, "bias_regularizer": null, "dilation_rate": [1, 1], "use_bias": true, "activation": "linear", "bias_initializer": {"config": {}, "class_name": "Zeros"}, "kernel_size": [1, 1], "kernel_regularizer": null, "filters": 2048, "padding": "valid"}, "inbound_nodes": [[["activation_45", 0, 0, {}]]], "class_name": "Conv2D"}, {"name": "bn5b_branch2c", "config": {"momentum": 0.99, "name": "bn5b_branch2c", "moving_variance_initializer": {"config": {}, "class_name": "Ones"}, "beta_initializer": {"config": {}, "class_name": "Zeros"}, "axis": 3, "center": true, "beta_regularizer": null, "gamma_constraint": null, "trainable": true, "moving_mean_initializer": {"config": {}, "class_name": "Zeros"}, "scale": true, "gamma_initializer": {"config": {}, "class_name": "Ones"}, "beta_constraint": null, "epsilon": 0.001, "gamma_regularizer": null}, "inbound_nodes": [[["res5b_branch2c", 0, 0, {}]]], "class_name": "BatchNormalization"}, {"name": "add_15", "config": {"name": "add_15", "trainable": false}, "inbound_nodes": [[["bn5b_branch2c", 0, 0, {}], ["activation_43", 0, 0, {}]]], "class_name": "Add"}, {"name": "activation_46", "config": {"name": "activation_46", "activation": "relu", "trainable": false}, "inbound_nodes": [[["add_15", 0, 0, {}]]], "class_name": "Activation"}, {"name": "res5c_branch2a", "config": {"name": "res5c_branch2a", "strides": [1, 1], "activity_regularizer": null, "kernel_initializer": {"config": {"scale": 1.0, "distribution": "uniform", "mode": "fan_avg", "seed": null}, "class_name": "VarianceScaling"}, "kernel_constraint": null, "bias_constraint": null, "data_format": "channels_last", "trainable": true, "bias_regularizer": null, "dilation_rate": [1, 1], "use_bias": true, "activation": "linear", "bias_initializer": {"config": {}, "class_name": "Zeros"}, "kernel_size": [1, 1], "kernel_regularizer": null, "filters": 512, "padding": "valid"}, "inbound_nodes": [[["activation_46", 0, 0, {}]]], "class_name": "Conv2D"}, {"name": "bn5c_branch2a", "config": {"momentum": 0.99, "name": "bn5c_branch2a", "moving_variance_initializer": {"config": {}, "class_name": "Ones"}, "beta_initializer": {"config": {}, "class_name": "Zeros"}, "axis": 3, "center": true, "beta_regularizer": null, "gamma_constraint": null, "trainable": true, "moving_mean_initializer": {"config": {}, "class_name": "Zeros"}, "scale": true, "gamma_initializer": {"config": {}, "class_name": "Ones"}, "beta_constraint": null, "epsilon": 0.001, "gamma_regularizer": null}, "inbound_nodes": [[["res5c_branch2a", 0, 0, {}]]], "class_name": "BatchNormalization"}, {"name": "activation_47", "config": {"name": "activation_47", "activation": "relu", "trainable": false}, "inbound_nodes": [[["bn5c_branch2a", 0, 0, {}]]], "class_name": "Activation"}, {"name": "res5c_branch2b", "config": {"name": "res5c_branch2b", "strides": [1, 1], "activity_regularizer": null, "kernel_initializer": {"config": {"scale": 1.0, "distribution": "uniform", "mode": "fan_avg", "seed": null}, "class_name": "VarianceScaling"}, "kernel_constraint": null, "bias_constraint": null, "data_format": "channels_last", "trainable": true, "bias_regularizer": null, "dilation_rate": [1, 1], "use_bias": true, "activation": "linear", "bias_initializer": {"config": {}, "class_name": "Zeros"}, "kernel_size": [3, 3], "kernel_regularizer": null, "filters": 512, "padding": "same"}, "inbound_nodes": [[["activation_47", 0, 0, {}]]], "class_name": "Conv2D"}, {"name": "bn5c_branch2b", "config": {"momentum": 0.99, "name": "bn5c_branch2b", "moving_variance_initializer": {"config": {}, "class_name": "Ones"}, "beta_initializer": {"config": {}, "class_name": "Zeros"}, "axis": 3, "center": true, "beta_regularizer": null, "gamma_constraint": null, "trainable": true, "moving_mean_initializer": {"config": {}, "class_name": "Zeros"}, "scale": true, "gamma_initializer": {"config": {}, "class_name": "Ones"}, "beta_constraint": null, "epsilon": 0.001, "gamma_regularizer": null}, "inbound_nodes": [[["res5c_branch2b", 0, 0, {}]]], "class_name": "BatchNormalization"}, {"name": "activation_48", "config": {"name": "activation_48", "activation": "relu", "trainable": false}, "inbound_nodes": [[["bn5c_branch2b", 0, 0, {}]]], "class_name": "Activation"}, {"name": "res5c_branch2c", "config": {"name": "res5c_branch2c", "strides": [1, 1], "activity_regularizer": null, "kernel_initializer": {"config": {"scale": 1.0, "distribution": "uniform", "mode": "fan_avg", "seed": null}, "class_name": "VarianceScaling"}, "kernel_constraint": null, "bias_constraint": null, "data_format": "channels_last", "trainable": true, "bias_regularizer": null, "dilation_rate": [1, 1], "use_bias": true, "activation": "linear", "bias_initializer": {"config": {}, "class_name": "Zeros"}, "kernel_size": [1, 1], "kernel_regularizer": null, "filters": 2048, "padding": "valid"}, "inbound_nodes": [[["activation_48", 0, 0, {}]]], "class_name": "Conv2D"}, {"name": "bn5c_branch2c", "config": {"momentum": 0.99, "name": "bn5c_branch2c", "moving_variance_initializer": {"config": {}, "class_name": "Ones"}, "beta_initializer": {"config": {}, "class_name": "Zeros"}, "axis": 3, "center": true, "beta_regularizer": null, "gamma_constraint": null, "trainable": true, "moving_mean_initializer": {"config": {}, "class_name": "Zeros"}, "scale": true, "gamma_initializer": {"config": {}, "class_name": "Ones"}, "beta_constraint": null, "epsilon": 0.001, "gamma_regularizer": null}, "inbound_nodes": [[["res5c_branch2c", 0, 0, {}]]], "class_name": "BatchNormalization"}, {"name": "add_16", "config": {"name": "add_16", "trainable": false}, "inbound_nodes": [[["bn5c_branch2c", 0, 0, {}], ["activation_46", 0, 0, {}]]], "class_name": "Add"}, {"name": "activation_49", "config": {"name": "activation_49", "activation": "relu", "trainable": false}, "inbound_nodes": [[["add_16", 0, 0, {}]]], "class_name": "Activation"}, {"name": "avg_pool", "config": {"name": "avg_pool", "strides": [7, 7], "pool_size": [7, 7], "data_format": "channels_last", "trainable": false, "padding": "valid"}, "inbound_nodes": [[["activation_49", 0, 0, {}]]], "class_name": "AveragePooling2D"}, {"name": "global_average_pooling2d_1", "config": {"name": "global_average_pooling2d_1", "trainable": false, "data_format": "channels_last"}, "inbound_nodes": [[["avg_pool", 0, 0, {}]]], "class_name": "GlobalAveragePooling2D"}, {"name": "dense_1", "config": {"name": "dense_1", "kernel_initializer": {"config": {"scale": 1.0, "distribution": "uniform", "mode": "fan_avg", "seed": null}, "class_name": "VarianceScaling"}, "kernel_constraint": null, "units": 25, "kernel_regularizer": null, "bias_regularizer": null, "use_bias": true, "bias_initializer": {"config": {}, "class_name": "Zeros"}, "activation": "softmax", "trainable": true, "bias_constraint": null, "activity_regularizer": null}, "inbound_nodes": [[["global_average_pooling2d_1", 0, 0, {}]]], "class_name": "Dense"}], "output_layers": [["dense_1", 0, 0]]}, "class_name": "Model", "backend": "tensorflow"}